…
br><span class="line">26</span><br><span class="line">27</span><br><span class="line">28</span><br><span class="line">29</span><br><span class="line">30</span><br></pre></td><td class="code"><pre><span class="line">==========================================================================================</span><br><span class="line">Layer (type:depth-idx)                   Output Shape              Param #</span><br><span class="line">==========================================================================================</span><br><span class="line">TinyVGG                                  [1, 3]                    --</span><br><span class="line">├─Sequential: 1-1                        [1, 10, 32, 32]           --</span><br><span class="line">│    └─Conv2d: 2-1                       [1, 10, 64, 64]           280</span><br><span class="line">│    └─ReLU: 2-2                         [1, 10, 64, 64]           --</span><br><span class="line">│    └─Conv2d: 2-3                       [1, 10, 64, 64]           910</span><br><span class="line">│    └─ReLU: 2-4                         [1, 10, 64, 64]           --</span><br><span class="line">│    └─MaxPool2d: 2-5                    [1, 10, 32, 32]           --</span><br><span class="line">├─Sequential: 1-2                        [1, 10, 16, 16]           --</span><br><span class="line">│    └─Conv2d: 2-6                       [1, 10, 32, 32]           910</span><br><span class="line">│    └─ReLU: 2-7                         [1, 10, 32, 32]           --</span><br><span class="line">│    └─Conv2d: 2-8                       [1, 10, 32, 32]           910</span><br><span class="line">│    └─ReLU: 2-9                         [1, 10, 32, 32]           --</span><br><span class="line">│    └─MaxPool2d: 2-10                   [1, 10, 16, 16]           --</span><br><span class="line">├─Sequential: 1-3                        [1, 3]                    --</span><br><span class="line">│    └─Flatten: 2-11                     [1, 2560]                 --</span><br><span class="line">│    └─Linear: 2-12                      [1, 3]                    7,683</span><br><span class="line">==========================================================================================</span><br><span class="line">Total params: 10,693</span><br><span class="line">Trainable params: 10,693</span><br><span class="line">Non-trainable params: 0</span><br><span class="line">Total mult-adds (M): 6.75</span><br><span class="line">======================================
…
